7767517
219 251
Input            input0                   0 1 input0
Convolution      Conv_0                   1 1 input0 169 0=24 1=3 11=3 2=1 12=1 3=2 13=2 4=1 14=1 15=1 16=1 5=1 6=648
ReLU             Relu_1                   1 1 169 170
Pooling          MaxPool_2                1 1 170 171 0=0 1=3 11=3 2=2 12=2 3=1 13=1 14=1 15=1 5=1
Split            splitncnn_0              1 2 171 171_splitncnn_0 171_splitncnn_1
ConvolutionDepthWise Conv_3                   1 1 171_splitncnn_1 172 0=24 1=3 11=3 2=1 12=1 3=2 13=2 4=1 14=1 15=1 16=1 5=1 6=216 7=24
Convolution      Conv_4                   1 1 172 173 0=24 1=1 11=1 2=1 12=1 3=1 13=1 4=0 14=0 15=0 16=0 5=1 6=576
ReLU             Relu_5                   1 1 173 174
Convolution      Conv_6                   1 1 171_splitncnn_0 175 0=24 1=1 11=1 2=1 12=1 3=1 13=1 4=0 14=0 15=0 16=0 5=1 6=576
ReLU             Relu_7                   1 1 175 176
ConvolutionDepthWise Conv_8                   1 1 176 177 0=24 1=3 11=3 2=1 12=1 3=2 13=2 4=1 14=1 15=1 16=1 5=1 6=216 7=24
Convolution      Conv_9                   1 1 177 178 0=24 1=1 11=1 2=1 12=1 3=1 13=1 4=0 14=0 15=0 16=0 5=1 6=576
ReLU             Relu_10                  1 1 178 179
Concat           Concat_11                2 1 174 179 180 0=0
ShuffleChannel   Reshape_16               1 1 180 185 0=24 1=0
Slice            Split_17                 1 2 185 186 187 -23300=2,24,-233 1=0
Convolution      Conv_18                  1 1 187 188 0=24 1=1 11=1 2=1 12=1 3=1 13=1 4=0 14=0 15=0 16=0 5=1 6=576
ReLU             Relu_19                  1 1 188 189
ConvolutionDepthWise Conv_20                  1 1 189 190 0=24 1=3 11=3 2=1 12=1 3=1 13=1 4=1 14=1 15=1 16=1 5=1 6=216 7=24
Convolution      Conv_21                  1 1 190 191 0=24 1=1 11=1 2=1 12=1 3=1 13=1 4=0 14=0 15=0 16=0 5=1 6=576
ReLU             Relu_22                  1 1 191 192
Concat           Concat_23                2 1 186 192 193 0=0
ShuffleChannel   Reshape_28               1 1 193 198 0=24 1=0
Slice            Split_29                 1 2 198 199 200 -23300=2,24,-233 1=0
Convolution      Conv_30                  1 1 200 201 0=24 1=1 11=1 2=1 12=1 3=1 13=1 4=0 14=0 15=0 16=0 5=1 6=576
ReLU             Relu_31                  1 1 201 202
ConvolutionDepthWise Conv_32                  1 1 202 203 0=24 1=3 11=3 2=1 12=1 3=1 13=1 4=1 14=1 15=1 16=1 5=1 6=216 7=24
Convolution      Conv_33                  1 1 203 204 0=24 1=1 11=1 2=1 12=1 3=1 13=1 4=0 14=0 15=0 16=0 5=1 6=576
ReLU             Relu_34                  1 1 204 205
Concat           Concat_35                2 1 199 205 206 0=0
ShuffleChannel   Reshape_40               1 1 206 211 0=24 1=0
Slice            Split_41                 1 2 211 212 213 -23300=2,24,-233 1=0
Convolution      Conv_42                  1 1 213 214 0=24 1=1 11=1 2=1 12=1 3=1 13=1 4=0 14=0 15=0 16=0 5=1 6=576
ReLU             Relu_43                  1 1 214 215
ConvolutionDepthWise Conv_44                  1 1 215 216 0=24 1=3 11=3 2=1 12=1 3=1 13=1 4=1 14=1 15=1 16=1 5=1 6=216 7=24
Convolution      Conv_45                  1 1 216 217 0=24 1=1 11=1 2=1 12=1 3=1 13=1 4=0 14=0 15=0 16=0 5=1 6=576
ReLU             Relu_46                  1 1 217 218
Concat           Concat_47                2 1 212 218 219 0=0
Split            splitncnn_1              1 3 219 219_splitncnn_0 219_splitncnn_1 219_splitncnn_2
ConvolutionDepthWise Conv_48                  1 1 219_splitncnn_2 220 0=48 1=3 11=3 2=1 12=1 3=2 13=2 4=1 14=1 15=1 16=1 5=1 6=432 7=48
Convolution      Conv_49                  1 1 220 221 0=48 1=1 11=1 2=1 12=1 3=1 13=1 4=0 14=0 15=0 16=0 5=1 6=2304
ReLU             Relu_50                  1 1 221 222
Convolution      Conv_51                  1 1 219_splitncnn_1 223 0=48 1=1 11=1 2=1 12=1 3=1 13=1 4=0 14=0 15=0 16=0 5=1 6=2304
ReLU             Relu_52                  1 1 223 224
ConvolutionDepthWise Conv_53                  1 1 224 225 0=48 1=3 11=3 2=1 12=1 3=2 13=2 4=1 14=1 15=1 16=1 5=1 6=432 7=48
Convolution      Conv_54                  1 1 225 226 0=48 1=1 11=1 2=1 12=1 3=1 13=1 4=0 14=0 15=0 16=0 5=1 6=2304
ReLU             Relu_55                  1 1 226 227
Concat           Concat_56                2 1 222 227 228 0=0
ShuffleChannel   Reshape_61               1 1 228 233 0=48 1=0
Slice            Split_62                 1 2 233 234 235 -23300=2,48,-233 1=0
Convolution      Conv_63                  1 1 235 236 0=48 1=1 11=1 2=1 12=1 3=1 13=1 4=0 14=0 15=0 16=0 5=1 6=2304
ReLU             Relu_64                  1 1 236 237
ConvolutionDepthWise Conv_65                  1 1 237 238 0=48 1=3 11=3 2=1 12=1 3=1 13=1 4=1 14=1 15=1 16=1 5=1 6=432 7=48
Convolution      Conv_66                  1 1 238 239 0=48 1=1 11=1 2=1 12=1 3=1 13=1 4=0 14=0 15=0 16=0 5=1 6=2304
ReLU             Relu_67                  1 1 239 240
Concat           Concat_68                2 1 234 240 241 0=0
ShuffleChannel   Reshape_73               1 1 241 246 0=48 1=0
Slice            Split_74                 1 2 246 247 248 -23300=2,48,-233 1=0
Convolution      Conv_75                  1 1 248 249 0=48 1=1 11=1 2=1 12=1 3=1 13=1 4=0 14=0 15=0 16=0 5=1 6=2304
ReLU             Relu_76                  1 1 249 250
ConvolutionDepthWise Conv_77                  1 1 250 251 0=48 1=3 11=3 2=1 12=1 3=1 13=1 4=1 14=1 15=1 16=1 5=1 6=432 7=48
Convolution      Conv_78                  1 1 251 252 0=48 1=1 11=1 2=1 12=1 3=1 13=1 4=0 14=0 15=0 16=0 5=1 6=2304
ReLU             Relu_79                  1 1 252 253
Concat           Concat_80                2 1 247 253 254 0=0
ShuffleChannel   Reshape_85               1 1 254 259 0=48 1=0
Slice            Split_86                 1 2 259 260 261 -23300=2,48,-233 1=0
Convolution      Conv_87                  1 1 261 262 0=48 1=1 11=1 2=1 12=1 3=1 13=1 4=0 14=0 15=0 16=0 5=1 6=2304
ReLU             Relu_88                  1 1 262 263
ConvolutionDepthWise Conv_89                  1 1 263 264 0=48 1=3 11=3 2=1 12=1 3=1 13=1 4=1 14=1 15=1 16=1 5=1 6=432 7=48
Convolution      Conv_90                  1 1 264 265 0=48 1=1 11=1 2=1 12=1 3=1 13=1 4=0 14=0 15=0 16=0 5=1 6=2304
ReLU             Relu_91                  1 1 265 266
Concat           Concat_92                2 1 260 266 267 0=0
ShuffleChannel   Reshape_97               1 1 267 272 0=48 1=0
Slice            Split_98                 1 2 272 273 274 -23300=2,48,-233 1=0
Convolution      Conv_99                  1 1 274 275 0=48 1=1 11=1 2=1 12=1 3=1 13=1 4=0 14=0 15=0 16=0 5=1 6=2304
ReLU             Relu_100                 1 1 275 276
ConvolutionDepthWise Conv_101                 1 1 276 277 0=48 1=3 11=3 2=1 12=1 3=1 13=1 4=1 14=1 15=1 16=1 5=1 6=432 7=48
Convolution      Conv_102                 1 1 277 278 0=48 1=1 11=1 2=1 12=1 3=1 13=1 4=0 14=0 15=0 16=0 5=1 6=2304
ReLU             Relu_103                 1 1 278 279
Concat           Concat_104               2 1 273 279 280 0=0
ShuffleChannel   Reshape_109              1 1 280 285 0=48 1=0
Slice            Split_110                1 2 285 286 287 -23300=2,48,-233 1=0
Convolution      Conv_111                 1 1 287 288 0=48 1=1 11=1 2=1 12=1 3=1 13=1 4=0 14=0 15=0 16=0 5=1 6=2304
ReLU             Relu_112                 1 1 288 289
ConvolutionDepthWise Conv_113                 1 1 289 290 0=48 1=3 11=3 2=1 12=1 3=1 13=1 4=1 14=1 15=1 16=1 5=1 6=432 7=48
Convolution      Conv_114                 1 1 290 291 0=48 1=1 11=1 2=1 12=1 3=1 13=1 4=0 14=0 15=0 16=0 5=1 6=2304
ReLU             Relu_115                 1 1 291 292
Concat           Concat_116               2 1 286 292 293 0=0
ShuffleChannel   Reshape_121              1 1 293 298 0=48 1=0
Slice            Split_122                1 2 298 299 300 -23300=2,48,-233 1=0
Convolution      Conv_123                 1 1 300 301 0=48 1=1 11=1 2=1 12=1 3=1 13=1 4=0 14=0 15=0 16=0 5=1 6=2304
ReLU             Relu_124                 1 1 301 302
ConvolutionDepthWise Conv_125                 1 1 302 303 0=48 1=3 11=3 2=1 12=1 3=1 13=1 4=1 14=1 15=1 16=1 5=1 6=432 7=48
Convolution      Conv_126                 1 1 303 304 0=48 1=1 11=1 2=1 12=1 3=1 13=1 4=0 14=0 15=0 16=0 5=1 6=2304
ReLU             Relu_127                 1 1 304 305
Concat           Concat_128               2 1 299 305 306 0=0
ShuffleChannel   Reshape_133              1 1 306 311 0=48 1=0
Slice            Split_134                1 2 311 312 313 -23300=2,48,-233 1=0
Convolution      Conv_135                 1 1 313 314 0=48 1=1 11=1 2=1 12=1 3=1 13=1 4=0 14=0 15=0 16=0 5=1 6=2304
ReLU             Relu_136                 1 1 314 315
ConvolutionDepthWise Conv_137                 1 1 315 316 0=48 1=3 11=3 2=1 12=1 3=1 13=1 4=1 14=1 15=1 16=1 5=1 6=432 7=48
Convolution      Conv_138                 1 1 316 317 0=48 1=1 11=1 2=1 12=1 3=1 13=1 4=0 14=0 15=0 16=0 5=1 6=2304
ReLU             Relu_139                 1 1 317 318
Concat           Concat_140               2 1 312 318 319 0=0
Split            splitncnn_2              1 3 319 319_splitncnn_0 319_splitncnn_1 319_splitncnn_2
ConvolutionDepthWise Conv_141                 1 1 319_splitncnn_2 320 0=96 1=3 11=3 2=1 12=1 3=2 13=2 4=1 14=1 15=1 16=1 5=1 6=864 7=96
Convolution      Conv_142                 1 1 320 321 0=96 1=1 11=1 2=1 12=1 3=1 13=1 4=0 14=0 15=0 16=0 5=1 6=9216
ReLU             Relu_143                 1 1 321 322
Convolution      Conv_144                 1 1 319_splitncnn_1 323 0=96 1=1 11=1 2=1 12=1 3=1 13=1 4=0 14=0 15=0 16=0 5=1 6=9216
ReLU             Relu_145                 1 1 323 324
ConvolutionDepthWise Conv_146                 1 1 324 325 0=96 1=3 11=3 2=1 12=1 3=2 13=2 4=1 14=1 15=1 16=1 5=1 6=864 7=96
Convolution      Conv_147                 1 1 325 326 0=96 1=1 11=1 2=1 12=1 3=1 13=1 4=0 14=0 15=0 16=0 5=1 6=9216
ReLU             Relu_148                 1 1 326 327
Concat           Concat_149               2 1 322 327 328 0=0
ShuffleChannel   Reshape_154              1 1 328 333 0=96 1=0
Slice            Split_155                1 2 333 334 335 -23300=2,96,-233 1=0
Convolution      Conv_156                 1 1 335 336 0=96 1=1 11=1 2=1 12=1 3=1 13=1 4=0 14=0 15=0 16=0 5=1 6=9216
ReLU             Relu_157                 1 1 336 337
ConvolutionDepthWise Conv_158                 1 1 337 338 0=96 1=3 11=3 2=1 12=1 3=1 13=1 4=1 14=1 15=1 16=1 5=1 6=864 7=96
Convolution      Conv_159                 1 1 338 339 0=96 1=1 11=1 2=1 12=1 3=1 13=1 4=0 14=0 15=0 16=0 5=1 6=9216
ReLU             Relu_160                 1 1 339 340
Concat           Concat_161               2 1 334 340 341 0=0
ShuffleChannel   Reshape_166              1 1 341 346 0=96 1=0
Slice            Split_167                1 2 346 347 348 -23300=2,96,-233 1=0
Convolution      Conv_168                 1 1 348 349 0=96 1=1 11=1 2=1 12=1 3=1 13=1 4=0 14=0 15=0 16=0 5=1 6=9216
ReLU             Relu_169                 1 1 349 350
ConvolutionDepthWise Conv_170                 1 1 350 351 0=96 1=3 11=3 2=1 12=1 3=1 13=1 4=1 14=1 15=1 16=1 5=1 6=864 7=96
Convolution      Conv_171                 1 1 351 352 0=96 1=1 11=1 2=1 12=1 3=1 13=1 4=0 14=0 15=0 16=0 5=1 6=9216
ReLU             Relu_172                 1 1 352 353
Concat           Concat_173               2 1 347 353 354 0=0
ShuffleChannel   Reshape_178              1 1 354 359 0=96 1=0
Slice            Split_179                1 2 359 360 361 -23300=2,96,-233 1=0
Convolution      Conv_180                 1 1 361 362 0=96 1=1 11=1 2=1 12=1 3=1 13=1 4=0 14=0 15=0 16=0 5=1 6=9216
ReLU             Relu_181                 1 1 362 363
ConvolutionDepthWise Conv_182                 1 1 363 364 0=96 1=3 11=3 2=1 12=1 3=1 13=1 4=1 14=1 15=1 16=1 5=1 6=864 7=96
Convolution      Conv_183                 1 1 364 365 0=96 1=1 11=1 2=1 12=1 3=1 13=1 4=0 14=0 15=0 16=0 5=1 6=9216
ReLU             Relu_184                 1 1 365 366
Concat           Concat_185               2 1 360 366 367 0=0
Convolution      Conv_186                 1 1 219_splitncnn_0 368 0=16 1=1 11=1 2=1 12=1 3=1 13=1 4=0 14=0 15=0 16=0 5=1 6=768
ReLU             LeakyRelu_187            1 1 368 369 0=1.000000e-01
Convolution      Conv_188                 1 1 319_splitncnn_0 370 0=16 1=1 11=1 2=1 12=1 3=1 13=1 4=0 14=0 15=0 16=0 5=1 6=1536
ReLU             LeakyRelu_189            1 1 370 371 0=1.000000e-01
Convolution      Conv_190                 1 1 367 372 0=16 1=1 11=1 2=1 12=1 3=1 13=1 4=0 14=0 15=0 16=0 5=1 6=3072
ReLU             LeakyRelu_191            1 1 372 373 0=1.000000e-01
Split            splitncnn_3              1 3 373 373_splitncnn_0 373_splitncnn_1 373_splitncnn_2
Interp           Upsample_208             1 1 373_splitncnn_2 390 0=2 1=2.000000e+00 2=2.000000e+00
BinaryOp         Add_209                  2 1 371 390 391 0=0
Convolution      Conv_210                 1 1 391 392 0=16 1=3 11=3 2=1 12=1 3=1 13=1 4=1 14=1 15=1 16=1 5=1 6=2304
ReLU             LeakyRelu_211            1 1 392 393 0=1.000000e-01
Split            splitncnn_4              1 3 393 393_splitncnn_0 393_splitncnn_1 393_splitncnn_2
Interp           Upsample_228             1 1 393_splitncnn_2 410 0=2 1=2.000000e+00 2=2.000000e+00
BinaryOp         Add_229                  2 1 369 410 411 0=0
Convolution      Conv_230                 1 1 411 412 0=16 1=3 11=3 2=1 12=1 3=1 13=1 4=1 14=1 15=1 16=1 5=1 6=2304
ReLU             LeakyRelu_231            1 1 412 413 0=1.000000e-01
Split            splitncnn_5              1 2 413 413_splitncnn_0 413_splitncnn_1
Convolution      Conv_232                 1 1 413_splitncnn_1 414 0=8 1=3 11=3 2=1 12=1 3=1 13=1 4=1 14=1 15=1 16=1 5=1 6=1152
Convolution      Conv_233                 1 1 413_splitncnn_0 415 0=4 1=3 11=3 2=1 12=1 3=1 13=1 4=1 14=1 15=1 16=1 5=1 6=576
ReLU             LeakyRelu_234            1 1 415 416 0=1.000000e-01
Split            splitncnn_6              1 2 416 416_splitncnn_0 416_splitncnn_1
Convolution      Conv_235                 1 1 416_splitncnn_1 417 0=4 1=3 11=3 2=1 12=1 3=1 13=1 4=1 14=1 15=1 16=1 5=1 6=144
Convolution      Conv_236                 1 1 416_splitncnn_0 418 0=4 1=3 11=3 2=1 12=1 3=1 13=1 4=1 14=1 15=1 16=1 5=1 6=144
ReLU             LeakyRelu_237            1 1 418 419 0=1.000000e-01
Convolution      Conv_238                 1 1 419 420 0=4 1=3 11=3 2=1 12=1 3=1 13=1 4=1 14=1 15=1 16=1 5=1 6=144
Concat           Concat_239               3 1 414 417 420 421 0=0
ReLU             Relu_240                 1 1 421 422
Split            splitncnn_7              1 3 422 422_splitncnn_0 422_splitncnn_1 422_splitncnn_2
Convolution      Conv_241                 1 1 393_splitncnn_1 423 0=8 1=3 11=3 2=1 12=1 3=1 13=1 4=1 14=1 15=1 16=1 5=1 6=1152
Convolution      Conv_242                 1 1 393_splitncnn_0 424 0=4 1=3 11=3 2=1 12=1 3=1 13=1 4=1 14=1 15=1 16=1 5=1 6=576
ReLU             LeakyRelu_243            1 1 424 425 0=1.000000e-01
Split            splitncnn_8              1 2 425 425_splitncnn_0 425_splitncnn_1
Convolution      Conv_244                 1 1 425_splitncnn_1 426 0=4 1=3 11=3 2=1 12=1 3=1 13=1 4=1 14=1 15=1 16=1 5=1 6=144
Convolution      Conv_245                 1 1 425_splitncnn_0 427 0=4 1=3 11=3 2=1 12=1 3=1 13=1 4=1 14=1 15=1 16=1 5=1 6=144
ReLU             LeakyRelu_246            1 1 427 428 0=1.000000e-01
Convolution      Conv_247                 1 1 428 429 0=4 1=3 11=3 2=1 12=1 3=1 13=1 4=1 14=1 15=1 16=1 5=1 6=144
Concat           Concat_248               3 1 423 426 429 430 0=0
ReLU             Relu_249                 1 1 430 431
Split            splitncnn_9              1 3 431 431_splitncnn_0 431_splitncnn_1 431_splitncnn_2
Convolution      Conv_250                 1 1 373_splitncnn_1 432 0=8 1=3 11=3 2=1 12=1 3=1 13=1 4=1 14=1 15=1 16=1 5=1 6=1152
Convolution      Conv_251                 1 1 373_splitncnn_0 433 0=4 1=3 11=3 2=1 12=1 3=1 13=1 4=1 14=1 15=1 16=1 5=1 6=576
ReLU             LeakyRelu_252            1 1 433 434 0=1.000000e-01
Split            splitncnn_10             1 2 434 434_splitncnn_0 434_splitncnn_1
Convolution      Conv_253                 1 1 434_splitncnn_1 435 0=4 1=3 11=3 2=1 12=1 3=1 13=1 4=1 14=1 15=1 16=1 5=1 6=144
Convolution      Conv_254                 1 1 434_splitncnn_0 436 0=4 1=3 11=3 2=1 12=1 3=1 13=1 4=1 14=1 15=1 16=1 5=1 6=144
ReLU             LeakyRelu_255            1 1 436 437 0=1.000000e-01
Convolution      Conv_256                 1 1 437 438 0=4 1=3 11=3 2=1 12=1 3=1 13=1 4=1 14=1 15=1 16=1 5=1 6=144
Concat           Concat_257               3 1 432 435 438 439 0=0
ReLU             Relu_258                 1 1 439 440
Split            splitncnn_11             1 3 440 440_splitncnn_0 440_splitncnn_1 440_splitncnn_2
Convolution      Conv_259                 1 1 422_splitncnn_2 441 0=8 1=1 11=1 2=1 12=1 3=1 13=1 4=0 14=0 15=0 16=0 5=1 6=128
Permute          Transpose_260            1 1 441 442 0=3
Reshape          Reshape_266              1 1 442 452 0=4 1=-1
Convolution      Conv_267                 1 1 431_splitncnn_2 453 0=8 1=1 11=1 2=1 12=1 3=1 13=1 4=0 14=0 15=0 16=0 5=1 6=128
Permute          Transpose_268            1 1 453 454 0=3
Reshape          Reshape_274              1 1 454 464 0=4 1=-1
Convolution      Conv_275                 1 1 440_splitncnn_2 465 0=8 1=1 11=1 2=1 12=1 3=1 13=1 4=0 14=0 15=0 16=0 5=1 6=128
Permute          Transpose_276            1 1 465 466 0=3
Reshape          Reshape_282              1 1 466 476 0=4 1=-1
Concat           Concat_283               3 1 452 464 476 bbox 0=0
Convolution      Conv_284                 1 1 422_splitncnn_1 478 0=4 1=1 11=1 2=1 12=1 3=1 13=1 4=0 14=0 15=0 16=0 5=1 6=64
Permute          Transpose_285            1 1 478 479 0=3
Reshape          Reshape_291              1 1 479 489 0=2 1=-1
Convolution      Conv_292                 1 1 431_splitncnn_1 490 0=4 1=1 11=1 2=1 12=1 3=1 13=1 4=0 14=0 15=0 16=0 5=1 6=64
Permute          Transpose_293            1 1 490 491 0=3
Reshape          Reshape_299              1 1 491 501 0=2 1=-1
Convolution      Conv_300                 1 1 440_splitncnn_1 502 0=4 1=1 11=1 2=1 12=1 3=1 13=1 4=0 14=0 15=0 16=0 5=1 6=64
Permute          Transpose_301            1 1 502 503 0=3
Reshape          Reshape_307              1 1 503 513 0=2 1=-1
Concat           Concat_308               3 1 489 501 513 514 0=0
Convolution      Conv_309                 1 1 422_splitncnn_0 515 0=20 1=1 11=1 2=1 12=1 3=1 13=1 4=0 14=0 15=0 16=0 5=1 6=320
Permute          Transpose_310            1 1 515 516 0=3
Reshape          Reshape_316              1 1 516 526 0=10 1=-1
Convolution      Conv_317                 1 1 431_splitncnn_0 527 0=20 1=1 11=1 2=1 12=1 3=1 13=1 4=0 14=0 15=0 16=0 5=1 6=320
Permute          Transpose_318            1 1 527 528 0=3
Reshape          Reshape_324              1 1 528 538 0=10 1=-1
Convolution      Conv_325                 1 1 440_splitncnn_0 539 0=20 1=1 11=1 2=1 12=1 3=1 13=1 4=0 14=0 15=0 16=0 5=1 6=320
Permute          Transpose_326            1 1 539 540 0=3
Reshape          Reshape_332              1 1 540 550 0=10 1=-1
Concat           Concat_333               3 1 526 538 550 lmk 0=0
Softmax          Softmax_334              1 1 514 cls 0=1 1=1
