7767517
299 334
Input            input0                   0 1 input0
Convolution      Conv_6                   1 1 input0 1463 0=16 1=3 11=3 2=1 12=1 3=2 13=2 4=1 14=1 15=1 16=1 5=1 6=432
HardSwish        Mul_11                   1 1 1463 686 0=1.666667e-01 1=5.000000e-01
Split            splitncnn_0              1 2 686 686_splitncnn_0 686_splitncnn_1
ConvolutionDepthWise Conv_12                  1 1 686_splitncnn_1 1466 0=16 1=3 11=3 2=1 12=1 3=2 13=2 4=1 14=1 15=1 16=1 5=1 6=144 7=16
Convolution      Conv_13                  1 1 1466 1469 0=16 1=1 11=1 2=1 12=1 3=1 13=1 4=0 14=0 15=0 16=0 5=1 6=256
ReLU             Relu_14                  1 1 1469 691
Convolution      Conv_15                  1 1 686_splitncnn_0 1472 0=24 1=1 11=1 2=1 12=1 3=1 13=1 4=0 14=0 15=0 16=0 5=1 6=384
ReLU             Relu_16                  1 1 1472 694
ConvolutionDepthWise Conv_17                  1 1 694 1475 0=24 1=3 11=3 2=1 12=1 3=2 13=2 4=1 14=1 15=1 16=1 5=1 6=216 7=24
Convolution      Conv_18                  1 1 1475 1478 0=32 1=1 11=1 2=1 12=1 3=1 13=1 4=0 14=0 15=0 16=0 5=1 6=768
ReLU             Relu_19                  1 1 1478 699
Concat           Concat_20                2 1 691 699 700 0=0
ShuffleChannel   Reshape_25               1 1 700 705 0=24 1=0
Slice            Split_26                 1 2 705 706 707 -23300=2,24,-233 1=0
Convolution      Conv_27                  1 1 707 1481 0=24 1=1 11=1 2=1 12=1 3=1 13=1 4=0 14=0 15=0 16=0 5=1 6=576
ReLU             Relu_28                  1 1 1481 710
ConvolutionDepthWise Conv_29                  1 1 710 1484 0=24 1=3 11=3 2=1 12=1 3=1 13=1 4=1 14=1 15=1 16=1 5=1 6=216 7=24
Convolution      Conv_30                  1 1 1484 1487 0=24 1=1 11=1 2=1 12=1 3=1 13=1 4=0 14=0 15=0 16=0 5=1 6=576
ReLU             Relu_31                  1 1 1487 715
Concat           Concat_32                2 1 706 715 716 0=0
ShuffleChannel   Reshape_37               1 1 716 721 0=24 1=0
Slice            Split_38                 1 2 721 722 723 -23300=2,24,-233 1=0
ConvolutionDepthWise Conv_39                  1 1 723 1490 0=24 1=3 11=3 2=1 12=1 3=1 13=1 4=1 14=1 15=1 16=1 5=1 6=216 7=24
Convolution      Conv_40                  1 1 1490 1493 0=24 1=1 11=1 2=1 12=1 3=1 13=1 4=0 14=0 15=0 16=0 5=1 6=576
ReLU             Relu_41                  1 1 1493 728
ConvolutionDepthWise Conv_42                  1 1 728 1496 0=24 1=3 11=3 2=1 12=1 3=1 13=1 4=1 14=1 15=1 16=1 5=1 6=216 7=24
Convolution      Conv_43                  1 1 1496 1499 0=24 1=1 11=1 2=1 12=1 3=1 13=1 4=0 14=0 15=0 16=0 5=1 6=576
ReLU             Relu_44                  1 1 1499 733
ConvolutionDepthWise Conv_45                  1 1 733 1502 0=24 1=3 11=3 2=1 12=1 3=1 13=1 4=1 14=1 15=1 16=1 5=1 6=216 7=24
Convolution      Conv_46                  1 1 1502 1505 0=24 1=1 11=1 2=1 12=1 3=1 13=1 4=0 14=0 15=0 16=0 5=1 6=576
ReLU             Relu_47                  1 1 1505 738
Concat           Concat_48                2 1 722 738 739 0=0
ShuffleChannel   Reshape_53               1 1 739 744 0=24 1=0
Slice            Split_54                 1 2 744 745 746 -23300=2,24,-233 1=0
Convolution      Conv_55                  1 1 746 1508 0=24 1=1 11=1 2=1 12=1 3=1 13=1 4=0 14=0 15=0 16=0 5=1 6=576
ReLU             Relu_56                  1 1 1508 749
ConvolutionDepthWise Conv_57                  1 1 749 1511 0=24 1=5 11=5 2=1 12=1 3=1 13=1 4=2 14=2 15=2 16=2 5=1 6=600 7=24
Convolution      Conv_58                  1 1 1511 1514 0=24 1=1 11=1 2=1 12=1 3=1 13=1 4=0 14=0 15=0 16=0 5=1 6=576
ReLU             Relu_59                  1 1 1514 754
Concat           Concat_60                2 1 745 754 755 0=0
Split            splitncnn_1              1 3 755 755_splitncnn_0 755_splitncnn_1 755_splitncnn_2
ConvolutionDepthWise Conv_61                  1 1 755_splitncnn_2 1517 0=48 1=5 11=5 2=1 12=1 3=2 13=2 4=2 14=2 15=2 16=2 5=1 6=1200 7=48
Convolution      Conv_62                  1 1 1517 1520 0=48 1=1 11=1 2=1 12=1 3=1 13=1 4=0 14=0 15=0 16=0 5=1 6=2304
HardSwish        Mul_67                   1 1 1520 766 0=1.666667e-01 1=5.000000e-01
Convolution      Conv_68                  1 1 755_splitncnn_1 1523 0=64 1=1 11=1 2=1 12=1 3=1 13=1 4=0 14=0 15=0 16=0 5=1 6=3072
HardSwish        Mul_73                   1 1 1523 775 0=1.666667e-01 1=5.000000e-01
ConvolutionDepthWise Conv_74                  1 1 775 1526 0=64 1=5 11=5 2=1 12=1 3=2 13=2 4=2 14=2 15=2 16=2 5=1 6=1600 7=64
Convolution      Conv_75                  1 1 1526 1529 0=80 1=1 11=1 2=1 12=1 3=1 13=1 4=0 14=0 15=0 16=0 5=1 6=5120
HardSwish        Mul_80                   1 1 1529 786 0=1.666667e-01 1=5.000000e-01
Concat           Concat_81                2 1 766 786 787 0=0
ShuffleChannel   Reshape_86               1 1 787 792 0=64 1=0
Slice            Split_87                 1 2 792 793 794 -23300=2,64,-233 1=0
Convolution      Conv_88                  1 1 794 1532 0=64 1=1 11=1 2=1 12=1 3=1 13=1 4=0 14=0 15=0 16=0 5=1 6=4096
HardSwish        Mul_93                   1 1 1532 803 0=1.666667e-01 1=5.000000e-01
ConvolutionDepthWise Conv_94                  1 1 803 1535 0=64 1=5 11=5 2=1 12=1 3=1 13=1 4=2 14=2 15=2 16=2 5=1 6=1600 7=64
Convolution      Conv_95                  1 1 1535 1538 0=64 1=1 11=1 2=1 12=1 3=1 13=1 4=0 14=0 15=0 16=0 5=1 6=4096
HardSwish        Mul_100                  1 1 1538 814 0=1.666667e-01 1=5.000000e-01
Concat           Concat_101               2 1 793 814 815 0=0
ShuffleChannel   Reshape_106              1 1 815 820 0=64 1=0
Slice            Split_107                1 2 820 821 822 -23300=2,64,-233 1=0
Convolution      Conv_108                 1 1 822 1541 0=64 1=1 11=1 2=1 12=1 3=1 13=1 4=0 14=0 15=0 16=0 5=1 6=4096
HardSwish        Mul_113                  1 1 1541 831 0=1.666667e-01 1=5.000000e-01
ConvolutionDepthWise Conv_114                 1 1 831 1544 0=64 1=3 11=3 2=1 12=1 3=1 13=1 4=1 14=1 15=1 16=1 5=1 6=576 7=64
Convolution      Conv_115                 1 1 1544 1547 0=64 1=1 11=1 2=1 12=1 3=1 13=1 4=0 14=0 15=0 16=0 5=1 6=4096
HardSwish        Mul_120                  1 1 1547 842 0=1.666667e-01 1=5.000000e-01
Concat           Concat_121               2 1 821 842 843 0=0
ShuffleChannel   Reshape_126              1 1 843 848 0=64 1=0
Slice            Split_127                1 2 848 849 850 -23300=2,64,-233 1=0
Convolution      Conv_128                 1 1 850 1550 0=64 1=1 11=1 2=1 12=1 3=1 13=1 4=0 14=0 15=0 16=0 5=1 6=4096
HardSwish        Mul_133                  1 1 1550 859 0=1.666667e-01 1=5.000000e-01
ConvolutionDepthWise Conv_134                 1 1 859 1553 0=64 1=3 11=3 2=1 12=1 3=1 13=1 4=1 14=1 15=1 16=1 5=1 6=576 7=64
Convolution      Conv_135                 1 1 1553 1556 0=64 1=1 11=1 2=1 12=1 3=1 13=1 4=0 14=0 15=0 16=0 5=1 6=4096
HardSwish        Mul_140                  1 1 1556 870 0=1.666667e-01 1=5.000000e-01
Concat           Concat_141               2 1 849 870 871 0=0
Split            splitncnn_2              1 3 871 871_splitncnn_0 871_splitncnn_1 871_splitncnn_2
ConvolutionDepthWise Conv_142                 1 1 871_splitncnn_2 1559 0=128 1=7 11=7 2=1 12=1 3=2 13=2 4=3 14=3 15=3 16=3 5=1 6=6272 7=128
Convolution      Conv_143                 1 1 1559 1562 0=128 1=1 11=1 2=1 12=1 3=1 13=1 4=0 14=0 15=0 16=0 5=1 6=16384
HardSwish        Mul_148                  1 1 1562 882 0=1.666667e-01 1=5.000000e-01
Convolution      Conv_149                 1 1 871_splitncnn_1 1565 0=128 1=1 11=1 2=1 12=1 3=1 13=1 4=0 14=0 15=0 16=0 5=1 6=16384
HardSwish        Mul_154                  1 1 1565 891 0=1.666667e-01 1=5.000000e-01
ConvolutionDepthWise Conv_155                 1 1 891 1568 0=128 1=7 11=7 2=1 12=1 3=2 13=2 4=3 14=3 15=3 16=3 5=1 6=6272 7=128
Convolution      Conv_156                 1 1 1568 1571 0=128 1=1 11=1 2=1 12=1 3=1 13=1 4=0 14=0 15=0 16=0 5=1 6=16384
HardSwish        Mul_161                  1 1 1571 902 0=1.666667e-01 1=5.000000e-01
Split            splitncnn_3              1 2 902 902_splitncnn_0 902_splitncnn_1
Pooling          GlobalAveragePool_162    1 1 902_splitncnn_1 903 0=1 4=1
Convolution      Conv_163                 1 1 903 1574 0=32 1=1 11=1 2=1 12=1 3=1 13=1 4=0 14=0 15=0 16=0 5=1 6=4096
ReLU             Relu_164                 1 1 1574 906
Convolution      Conv_165                 1 1 906 907 0=128 1=1 11=1 2=1 12=1 3=1 13=1 4=0 14=0 15=0 16=0 5=1 6=4096
Clip             Clip_168                 1 1 907 910 0=0.000000e+00 1=6.000000e+00
BinaryOp         Div_169                  1 1 910 913 0=3 1=1 2=6.000000e+00
BinaryOp         Mul_170                  2 1 902_splitncnn_0 913 914 0=2
Concat           Concat_171               2 1 882 914 915 0=0
ShuffleChannel   Reshape_176              1 1 915 920 0=128 1=0
Slice            Split_177                1 2 920 921 922 -23300=2,128,-233 1=0
Convolution      Conv_178                 1 1 922 1577 0=128 1=1 11=1 2=1 12=1 3=1 13=1 4=0 14=0 15=0 16=0 5=1 6=16384
HardSwish        Mul_183                  1 1 1577 931 0=1.666667e-01 1=5.000000e-01
ConvolutionDepthWise Conv_184                 1 1 931 1580 0=128 1=3 11=3 2=1 12=1 3=1 13=1 4=1 14=1 15=1 16=1 5=1 6=1152 7=128
Convolution      Conv_185                 1 1 1580 1583 0=128 1=1 11=1 2=1 12=1 3=1 13=1 4=0 14=0 15=0 16=0 5=1 6=16384
HardSwish        Mul_190                  1 1 1583 942 0=1.666667e-01 1=5.000000e-01
Split            splitncnn_4              1 2 942 942_splitncnn_0 942_splitncnn_1
Pooling          GlobalAveragePool_191    1 1 942_splitncnn_1 943 0=1 4=1
Convolution      Conv_192                 1 1 943 1586 0=32 1=1 11=1 2=1 12=1 3=1 13=1 4=0 14=0 15=0 16=0 5=1 6=4096
ReLU             Relu_193                 1 1 1586 946
Convolution      Conv_194                 1 1 946 947 0=128 1=1 11=1 2=1 12=1 3=1 13=1 4=0 14=0 15=0 16=0 5=1 6=4096
Clip             Clip_197                 1 1 947 950 0=0.000000e+00 1=6.000000e+00
BinaryOp         Div_198                  1 1 950 953 0=3 1=1 2=6.000000e+00
BinaryOp         Mul_199                  2 1 942_splitncnn_0 953 954 0=2
Concat           Concat_200               2 1 921 954 955 0=0
ShuffleChannel   Reshape_205              1 1 955 960 0=128 1=0
Slice            Split_206                1 2 960 961 962 -23300=2,128,-233 1=0
Convolution      Conv_207                 1 1 962 1589 0=128 1=1 11=1 2=1 12=1 3=1 13=1 4=0 14=0 15=0 16=0 5=1 6=16384
HardSwish        Mul_212                  1 1 1589 971 0=1.666667e-01 1=5.000000e-01
ConvolutionDepthWise Conv_213                 1 1 971 1592 0=128 1=7 11=7 2=1 12=1 3=1 13=1 4=3 14=3 15=3 16=3 5=1 6=6272 7=128
Convolution      Conv_214                 1 1 1592 1595 0=128 1=1 11=1 2=1 12=1 3=1 13=1 4=0 14=0 15=0 16=0 5=1 6=16384
HardSwish        Mul_219                  1 1 1595 982 0=1.666667e-01 1=5.000000e-01
Split            splitncnn_5              1 2 982 982_splitncnn_0 982_splitncnn_1
Pooling          GlobalAveragePool_220    1 1 982_splitncnn_1 983 0=1 4=1
Convolution      Conv_221                 1 1 983 1598 0=32 1=1 11=1 2=1 12=1 3=1 13=1 4=0 14=0 15=0 16=0 5=1 6=4096
ReLU             Relu_222                 1 1 1598 986
Convolution      Conv_223                 1 1 986 987 0=128 1=1 11=1 2=1 12=1 3=1 13=1 4=0 14=0 15=0 16=0 5=1 6=4096
Clip             Clip_226                 1 1 987 990 0=0.000000e+00 1=6.000000e+00
BinaryOp         Div_227                  1 1 990 993 0=3 1=1 2=6.000000e+00
BinaryOp         Mul_228                  2 1 982_splitncnn_0 993 994 0=2
Concat           Concat_229               2 1 961 994 995 0=0
ShuffleChannel   Reshape_234              1 1 995 1000 0=128 1=0
Slice            Split_235                1 2 1000 1001 1002 -23300=2,128,-233 1=0
Convolution      Conv_236                 1 1 1002 1601 0=128 1=1 11=1 2=1 12=1 3=1 13=1 4=0 14=0 15=0 16=0 5=1 6=16384
HardSwish        Mul_241                  1 1 1601 1011 0=1.666667e-01 1=5.000000e-01
ConvolutionDepthWise Conv_242                 1 1 1011 1604 0=128 1=5 11=5 2=1 12=1 3=1 13=1 4=2 14=2 15=2 16=2 5=1 6=3200 7=128
Convolution      Conv_243                 1 1 1604 1607 0=128 1=1 11=1 2=1 12=1 3=1 13=1 4=0 14=0 15=0 16=0 5=1 6=16384
HardSwish        Mul_248                  1 1 1607 1022 0=1.666667e-01 1=5.000000e-01
Split            splitncnn_6              1 2 1022 1022_splitncnn_0 1022_splitncnn_1
Pooling          GlobalAveragePool_249    1 1 1022_splitncnn_1 1023 0=1 4=1
Convolution      Conv_250                 1 1 1023 1610 0=32 1=1 11=1 2=1 12=1 3=1 13=1 4=0 14=0 15=0 16=0 5=1 6=4096
ReLU             Relu_251                 1 1 1610 1026
Convolution      Conv_252                 1 1 1026 1027 0=128 1=1 11=1 2=1 12=1 3=1 13=1 4=0 14=0 15=0 16=0 5=1 6=4096
Clip             Clip_255                 1 1 1027 1030 0=0.000000e+00 1=6.000000e+00
BinaryOp         Div_256                  1 1 1030 1033 0=3 1=1 2=6.000000e+00
BinaryOp         Mul_257                  2 1 1022_splitncnn_0 1033 1034 0=2
Concat           Concat_258               2 1 1001 1034 1035 0=0
ShuffleChannel   Reshape_263              1 1 1035 1040 0=128 1=0
Slice            Split_264                1 2 1040 1041 1042 -23300=2,128,-233 1=0
Convolution      Conv_265                 1 1 1042 1613 0=128 1=1 11=1 2=1 12=1 3=1 13=1 4=0 14=0 15=0 16=0 5=1 6=16384
HardSwish        Mul_270                  1 1 1613 1051 0=1.666667e-01 1=5.000000e-01
ConvolutionDepthWise Conv_271                 1 1 1051 1616 0=128 1=5 11=5 2=1 12=1 3=1 13=1 4=2 14=2 15=2 16=2 5=1 6=3200 7=128
Convolution      Conv_272                 1 1 1616 1619 0=128 1=1 11=1 2=1 12=1 3=1 13=1 4=0 14=0 15=0 16=0 5=1 6=16384
HardSwish        Mul_277                  1 1 1619 1062 0=1.666667e-01 1=5.000000e-01
Split            splitncnn_7              1 2 1062 1062_splitncnn_0 1062_splitncnn_1
Pooling          GlobalAveragePool_278    1 1 1062_splitncnn_1 1063 0=1 4=1
Convolution      Conv_279                 1 1 1063 1622 0=32 1=1 11=1 2=1 12=1 3=1 13=1 4=0 14=0 15=0 16=0 5=1 6=4096
ReLU             Relu_280                 1 1 1622 1066
Convolution      Conv_281                 1 1 1066 1067 0=128 1=1 11=1 2=1 12=1 3=1 13=1 4=0 14=0 15=0 16=0 5=1 6=4096
Clip             Clip_284                 1 1 1067 1070 0=0.000000e+00 1=6.000000e+00
BinaryOp         Div_285                  1 1 1070 1073 0=3 1=1 2=6.000000e+00
BinaryOp         Mul_286                  2 1 1062_splitncnn_0 1073 1074 0=2
Concat           Concat_287               2 1 1041 1074 1075 0=0
ShuffleChannel   Reshape_292              1 1 1075 1080 0=128 1=0
Slice            Split_293                1 2 1080 1081 1082 -23300=2,128,-233 1=0
Convolution      Conv_294                 1 1 1082 1625 0=128 1=1 11=1 2=1 12=1 3=1 13=1 4=0 14=0 15=0 16=0 5=1 6=16384
HardSwish        Mul_299                  1 1 1625 1091 0=1.666667e-01 1=5.000000e-01
ConvolutionDepthWise Conv_300                 1 1 1091 1628 0=128 1=3 11=3 2=1 12=1 3=1 13=1 4=1 14=1 15=1 16=1 5=1 6=1152 7=128
Convolution      Conv_301                 1 1 1628 1631 0=128 1=1 11=1 2=1 12=1 3=1 13=1 4=0 14=0 15=0 16=0 5=1 6=16384
HardSwish        Mul_306                  1 1 1631 1102 0=1.666667e-01 1=5.000000e-01
Split            splitncnn_8              1 2 1102 1102_splitncnn_0 1102_splitncnn_1
Pooling          GlobalAveragePool_307    1 1 1102_splitncnn_1 1103 0=1 4=1
Convolution      Conv_308                 1 1 1103 1634 0=32 1=1 11=1 2=1 12=1 3=1 13=1 4=0 14=0 15=0 16=0 5=1 6=4096
ReLU             Relu_309                 1 1 1634 1106
Convolution      Conv_310                 1 1 1106 1107 0=128 1=1 11=1 2=1 12=1 3=1 13=1 4=0 14=0 15=0 16=0 5=1 6=4096
Clip             Clip_313                 1 1 1107 1110 0=0.000000e+00 1=6.000000e+00
BinaryOp         Div_314                  1 1 1110 1113 0=3 1=1 2=6.000000e+00
BinaryOp         Mul_315                  2 1 1102_splitncnn_0 1113 1114 0=2
Concat           Concat_316               2 1 1081 1114 1115 0=0
ShuffleChannel   Reshape_321              1 1 1115 1120 0=128 1=0
Slice            Split_322                1 2 1120 1121 1122 -23300=2,128,-233 1=0
Convolution      Conv_323                 1 1 1122 1637 0=128 1=1 11=1 2=1 12=1 3=1 13=1 4=0 14=0 15=0 16=0 5=1 6=16384
HardSwish        Mul_328                  1 1 1637 1131 0=1.666667e-01 1=5.000000e-01
ConvolutionDepthWise Conv_329                 1 1 1131 1640 0=128 1=7 11=7 2=1 12=1 3=1 13=1 4=3 14=3 15=3 16=3 5=1 6=6272 7=128
Convolution      Conv_330                 1 1 1640 1643 0=128 1=1 11=1 2=1 12=1 3=1 13=1 4=0 14=0 15=0 16=0 5=1 6=16384
HardSwish        Mul_335                  1 1 1643 1142 0=1.666667e-01 1=5.000000e-01
Split            splitncnn_9              1 2 1142 1142_splitncnn_0 1142_splitncnn_1
Pooling          GlobalAveragePool_336    1 1 1142_splitncnn_1 1143 0=1 4=1
Convolution      Conv_337                 1 1 1143 1646 0=32 1=1 11=1 2=1 12=1 3=1 13=1 4=0 14=0 15=0 16=0 5=1 6=4096
ReLU             Relu_338                 1 1 1646 1146
Convolution      Conv_339                 1 1 1146 1147 0=128 1=1 11=1 2=1 12=1 3=1 13=1 4=0 14=0 15=0 16=0 5=1 6=4096
Clip             Clip_342                 1 1 1147 1150 0=0.000000e+00 1=6.000000e+00
BinaryOp         Div_343                  1 1 1150 1153 0=3 1=1 2=6.000000e+00
BinaryOp         Mul_344                  2 1 1142_splitncnn_0 1153 1154 0=2
Concat           Concat_345               2 1 1121 1154 1155 0=0
ShuffleChannel   Reshape_350              1 1 1155 1160 0=128 1=0
Slice            Split_351                1 2 1160 1161 1162 -23300=2,128,-233 1=0
Convolution      Conv_352                 1 1 1162 1649 0=128 1=1 11=1 2=1 12=1 3=1 13=1 4=0 14=0 15=0 16=0 5=1 6=16384
HardSwish        Mul_357                  1 1 1649 1171 0=1.666667e-01 1=5.000000e-01
ConvolutionDepthWise Conv_358                 1 1 1171 1652 0=128 1=3 11=3 2=1 12=1 3=1 13=1 4=1 14=1 15=1 16=1 5=1 6=1152 7=128
Convolution      Conv_359                 1 1 1652 1655 0=128 1=1 11=1 2=1 12=1 3=1 13=1 4=0 14=0 15=0 16=0 5=1 6=16384
HardSwish        Mul_364                  1 1 1655 1182 0=1.666667e-01 1=5.000000e-01
Split            splitncnn_10             1 2 1182 1182_splitncnn_0 1182_splitncnn_1
Pooling          GlobalAveragePool_365    1 1 1182_splitncnn_1 1183 0=1 4=1
Convolution      Conv_366                 1 1 1183 1658 0=32 1=1 11=1 2=1 12=1 3=1 13=1 4=0 14=0 15=0 16=0 5=1 6=4096
ReLU             Relu_367                 1 1 1658 1186
Convolution      Conv_368                 1 1 1186 1187 0=128 1=1 11=1 2=1 12=1 3=1 13=1 4=0 14=0 15=0 16=0 5=1 6=4096
Clip             Clip_371                 1 1 1187 1190 0=0.000000e+00 1=6.000000e+00
BinaryOp         Div_372                  1 1 1190 1193 0=3 1=1 2=6.000000e+00
BinaryOp         Mul_373                  2 1 1182_splitncnn_0 1193 1194 0=2
Concat           Concat_374               2 1 1161 1194 1195 0=0
Split            splitncnn_11             1 3 1195 1195_splitncnn_0 1195_splitncnn_1 1195_splitncnn_2
ConvolutionDepthWise Conv_375                 1 1 1195_splitncnn_2 1661 0=256 1=7 11=7 2=1 12=1 3=1 13=1 4=3 14=3 15=3 16=3 5=1 6=12544 7=256
Convolution      Conv_376                 1 1 1661 1664 0=256 1=1 11=1 2=1 12=1 3=1 13=1 4=0 14=0 15=0 16=0 5=1 6=65536
HardSwish        Mul_381                  1 1 1664 1206 0=1.666667e-01 1=5.000000e-01
Convolution      Conv_382                 1 1 1195_splitncnn_1 1667 0=256 1=1 11=1 2=1 12=1 3=1 13=1 4=0 14=0 15=0 16=0 5=1 6=65536
HardSwish        Mul_387                  1 1 1667 1215 0=1.666667e-01 1=5.000000e-01
ConvolutionDepthWise Conv_388                 1 1 1215 1670 0=256 1=7 11=7 2=1 12=1 3=1 13=1 4=3 14=3 15=3 16=3 5=1 6=12544 7=256
Convolution      Conv_389                 1 1 1670 1673 0=256 1=1 11=1 2=1 12=1 3=1 13=1 4=0 14=0 15=0 16=0 5=1 6=65536
HardSwish        Mul_394                  1 1 1673 1226 0=1.666667e-01 1=5.000000e-01
Split            splitncnn_12             1 2 1226 1226_splitncnn_0 1226_splitncnn_1
Pooling          GlobalAveragePool_395    1 1 1226_splitncnn_1 1227 0=1 4=1
Convolution      Conv_396                 1 1 1227 1676 0=64 1=1 11=1 2=1 12=1 3=1 13=1 4=0 14=0 15=0 16=0 5=1 6=16384
ReLU             Relu_397                 1 1 1676 1230
Convolution      Conv_398                 1 1 1230 1231 0=256 1=1 11=1 2=1 12=1 3=1 13=1 4=0 14=0 15=0 16=0 5=1 6=16384
Clip             Clip_401                 1 1 1231 1234 0=0.000000e+00 1=6.000000e+00
BinaryOp         Div_402                  1 1 1234 1237 0=3 1=1 2=6.000000e+00
BinaryOp         Mul_403                  2 1 1226_splitncnn_0 1237 1238 0=2
Concat           Concat_404               2 1 1206 1238 1239 0=0
ShuffleChannel   Reshape_409              1 1 1239 1244 0=256 1=0
Slice            Split_410                1 2 1244 1245 1246 -23300=2,256,-233 1=0
Convolution      Conv_411                 1 1 1246 1679 0=256 1=1 11=1 2=1 12=1 3=1 13=1 4=0 14=0 15=0 16=0 5=1 6=65536
HardSwish        Mul_416                  1 1 1679 1255 0=1.666667e-01 1=5.000000e-01
ConvolutionDepthWise Conv_417                 1 1 1255 1682 0=256 1=5 11=5 2=1 12=1 3=1 13=1 4=2 14=2 15=2 16=2 5=1 6=6400 7=256
Convolution      Conv_418                 1 1 1682 1685 0=256 1=1 11=1 2=1 12=1 3=1 13=1 4=0 14=0 15=0 16=0 5=1 6=65536
HardSwish        Mul_423                  1 1 1685 1266 0=1.666667e-01 1=5.000000e-01
Split            splitncnn_13             1 2 1266 1266_splitncnn_0 1266_splitncnn_1
Pooling          GlobalAveragePool_424    1 1 1266_splitncnn_1 1267 0=1 4=1
Convolution      Conv_425                 1 1 1267 1688 0=64 1=1 11=1 2=1 12=1 3=1 13=1 4=0 14=0 15=0 16=0 5=1 6=16384
ReLU             Relu_426                 1 1 1688 1270
Convolution      Conv_427                 1 1 1270 1271 0=256 1=1 11=1 2=1 12=1 3=1 13=1 4=0 14=0 15=0 16=0 5=1 6=16384
Clip             Clip_430                 1 1 1271 1274 0=0.000000e+00 1=6.000000e+00
BinaryOp         Div_431                  1 1 1274 1277 0=3 1=1 2=6.000000e+00
BinaryOp         Mul_432                  2 1 1266_splitncnn_0 1277 1278 0=2
Concat           Concat_433               2 1 1245 1278 1279 0=0
ShuffleChannel   Reshape_438              1 1 1279 1284 0=256 1=0
Slice            Split_439                1 2 1284 1285 1286 -23300=2,256,-233 1=0
ConvolutionDepthWise Conv_440                 1 1 1286 1691 0=256 1=3 11=3 2=2 12=2 3=1 13=1 4=2 14=2 15=2 16=2 5=1 6=2304 7=256
Convolution      Conv_441                 1 1 1691 1694 0=256 1=1 11=1 2=1 12=1 3=1 13=1 4=0 14=0 15=0 16=0 5=1 6=65536
HardSwish        Mul_446                  1 1 1694 1297 0=1.666667e-01 1=5.000000e-01
ConvolutionDepthWise Conv_447                 1 1 1297 1697 0=256 1=3 11=3 2=2 12=2 3=1 13=1 4=2 14=2 15=2 16=2 5=1 6=2304 7=256
Convolution      Conv_448                 1 1 1697 1700 0=256 1=1 11=1 2=1 12=1 3=1 13=1 4=0 14=0 15=0 16=0 5=1 6=65536
HardSwish        Mul_453                  1 1 1700 1308 0=1.666667e-01 1=5.000000e-01
ConvolutionDepthWise Conv_454                 1 1 1308 1703 0=256 1=3 11=3 2=2 12=2 3=1 13=1 4=2 14=2 15=2 16=2 5=1 6=2304 7=256
Convolution      Conv_455                 1 1 1703 1706 0=256 1=1 11=1 2=1 12=1 3=1 13=1 4=0 14=0 15=0 16=0 5=1 6=65536
HardSwish        Mul_460                  1 1 1706 1319 0=1.666667e-01 1=5.000000e-01
Split            splitncnn_14             1 2 1319 1319_splitncnn_0 1319_splitncnn_1
Pooling          GlobalAveragePool_461    1 1 1319_splitncnn_1 1320 0=1 4=1
Convolution      Conv_462                 1 1 1320 1709 0=64 1=1 11=1 2=1 12=1 3=1 13=1 4=0 14=0 15=0 16=0 5=1 6=16384
ReLU             Relu_463                 1 1 1709 1323
Convolution      Conv_464                 1 1 1323 1324 0=256 1=1 11=1 2=1 12=1 3=1 13=1 4=0 14=0 15=0 16=0 5=1 6=16384
Clip             Clip_467                 1 1 1324 1327 0=0.000000e+00 1=6.000000e+00
BinaryOp         Div_468                  1 1 1327 1330 0=3 1=1 2=6.000000e+00
BinaryOp         Mul_469                  2 1 1319_splitncnn_0 1330 1331 0=2
Concat           Concat_470               2 1 1285 1331 1332 0=0
ShuffleChannel   Reshape_475              1 1 1332 1337 0=256 1=0
Slice            Split_476                1 2 1337 1338 1339 -23300=2,256,-233 1=0
Convolution      Conv_477                 1 1 1339 1712 0=256 1=1 11=1 2=1 12=1 3=1 13=1 4=0 14=0 15=0 16=0 5=1 6=65536
HardSwish        Mul_482                  1 1 1712 1348 0=1.666667e-01 1=5.000000e-01
ConvolutionDepthWise Conv_483                 1 1 1348 1715 0=256 1=7 11=7 2=1 12=1 3=1 13=1 4=3 14=3 15=3 16=3 5=1 6=12544 7=256
Convolution      Conv_484                 1 1 1715 1718 0=256 1=1 11=1 2=1 12=1 3=1 13=1 4=0 14=0 15=0 16=0 5=1 6=65536
HardSwish        Mul_489                  1 1 1718 1359 0=1.666667e-01 1=5.000000e-01
Split            splitncnn_15             1 2 1359 1359_splitncnn_0 1359_splitncnn_1
Pooling          GlobalAveragePool_490    1 1 1359_splitncnn_1 1360 0=1 4=1
Convolution      Conv_491                 1 1 1360 1721 0=64 1=1 11=1 2=1 12=1 3=1 13=1 4=0 14=0 15=0 16=0 5=1 6=16384
ReLU             Relu_492                 1 1 1721 1363
Convolution      Conv_493                 1 1 1363 1364 0=256 1=1 11=1 2=1 12=1 3=1 13=1 4=0 14=0 15=0 16=0 5=1 6=16384
Clip             Clip_496                 1 1 1364 1367 0=0.000000e+00 1=6.000000e+00
BinaryOp         Div_497                  1 1 1367 1370 0=3 1=1 2=6.000000e+00
BinaryOp         Mul_498                  2 1 1359_splitncnn_0 1370 1371 0=2
Concat           Concat_499               2 1 1338 1371 1372 0=0
Convolution      Conv_500                 1 1 1372 1724 0=128 1=1 11=1 2=1 12=1 3=1 13=1 4=0 14=0 15=0 16=0 5=1 6=65536
ReLU             LeakyRelu_501            1 1 1724 1375 0=1.000000e-01
Convolution      Conv_502                 1 1 1195_splitncnn_0 1727 0=128 1=1 11=1 2=1 12=1 3=1 13=1 4=0 14=0 15=0 16=0 5=1 6=32768
ReLU             LeakyRelu_503            1 1 1727 1378 0=1.000000e-01
Convolution      Conv_504                 1 1 871_splitncnn_0 1730 0=128 1=1 11=1 2=1 12=1 3=1 13=1 4=0 14=0 15=0 16=0 5=1 6=16384
ReLU             LeakyRelu_505            1 1 1730 1381 0=1.000000e-01
Convolution      Conv_506                 1 1 755_splitncnn_0 1733 0=128 1=1 11=1 2=1 12=1 3=1 13=1 4=0 14=0 15=0 16=0 5=1 6=6144
ReLU             LeakyRelu_507            1 1 1733 1384 0=1.000000e-01
Interp           Upsample_524             1 1 1375 1401 0=2 1=1.000000e+00 2=1.000000e+00 6=0
BinaryOp         Add_525                  2 1 1378 1401 1402 0=0
ConvolutionDepthWise Conv_526                 1 1 1402 1736 0=128 1=3 11=3 2=1 12=1 3=1 13=1 4=1 14=1 15=1 16=1 5=1 6=1152 7=128
ReLU             LeakyRelu_527            1 1 1736 1405 0=0.000000e+00
Interp           Upsample_544             1 1 1405 1422 0=2 1=2.000000e+00 2=2.000000e+00 6=0
BinaryOp         Add_545                  2 1 1381 1422 1423 0=0
ConvolutionDepthWise Conv_546                 1 1 1423 1739 0=128 1=3 11=3 2=1 12=1 3=1 13=1 4=1 14=1 15=1 16=1 5=1 6=1152 7=128
ReLU             LeakyRelu_547            1 1 1739 1426 0=0.000000e+00
Interp           Upsample_564             1 1 1426 1443 0=2 1=2.000000e+00 2=2.000000e+00 6=0
BinaryOp         Add_565                  2 1 1384 1443 1444 0=0
ConvolutionDepthWise Conv_566                 1 1 1444 1742 0=128 1=3 11=3 2=1 12=1 3=1 13=1 4=1 14=1 15=1 16=1 5=1 6=1152 7=128
ReLU             LeakyRelu_567            1 1 1742 1447 0=0.000000e+00
Convolution      Conv_568                 1 1 1447 1745 0=128 1=3 11=3 2=1 12=1 3=1 13=1 4=1 14=1 15=1 16=1 5=1 6=147456
ReLU             Relu_569                 1 1 1745 1450
Convolution      Conv_570                 1 1 1450 1451 0=3 1=1 11=1 2=1 12=1 3=1 13=1 4=0 14=0 15=0 16=0 5=1 6=384
Interp           Upsample_581             1 1 1451 mask 0=2 1=4.000000e+00 2=4.000000e+00 6=0
